…
  is_meta: null
  name: device
  options:
  - _device
  order: 0
  type: <class 'torch.device'>
  value: null
device.device_info:
  computed: CPU
  is_explicitly_specified: false
  is_hyperparam: null
  is_meta: null
  name: device_info
  options:
  - _device_info
  order: 1
  type: <class 'labml_helpers.device.DeviceInfo'>
  value: null
device.use_cuda:
  computed: true
  is_explicitly_specified: false
  is_hyperparam: false
  is_meta: null
  name: use_cuda
  options: []
  order: 2
  type: <class 'bool'>
  value: null
discriminator:
  computed: "Discriminator(\n  (layers): Sequential(\n    (0): Conv2d(1, 256, kernel_size=(4,\
    \ 4), stride=(2, 2), padding=(1, 1), bias=False)\n    (1): LeakyReLU(negative_slope=0.2,\
    \ inplace=True)\n    (2): Conv2d(256, 512, kernel_size=(4, 4), stride=(2, 2),\
    \ padding=(1, 1), bias=False)\n    (3): BatchNorm2d(512, eps=1e-05, momentum=0.1,\
    \ affine=True, track_running_stats=True)\n    (4): LeakyReLU(negative_slope=0.2,\
    \ inplace=True)\n    (5): Conv2d(512, 1024, kernel_size=(3, 3), stride=(2, 2),\
    \ bias=False)\n    (6): BatchNorm2d(1024, eps=1e-05, momentum=0.1, affine=True,\
    \ track_running_stats=True)\n    (7): LeakyReLU(negative_slope=0.2, inplace=True)\n\
    \    (8): Conv2d(1024, 1, kernel_size=(3, 3), stride=(1, 1), bias=False)\n  )\n\
    )"
  is_explicitly_specified: true
  is_hyperparam: null
  is_meta: null
  name: discriminator
  options:
  - mlp
  - cnn
  order: 3
  type: <class 'labml_helpers.module.Module'>
  value: cnn
discriminator_k:
  computed: null
  is_explicitly_specified: false
  is_hyperparam: null
  is_meta: null
  name: discriminator_k
  options: []
…
  options:
  - original
  order: -1
  type: <class 'labml_nn.gan.original.DiscriminatorLogitsLoss'>
  value: null
discriminator_optimizer:
  computed: null
  is_explicitly_specified: false
  is_hyperparam: null
  is_meta: null
  name: discriminator_optimizer
  options:
  - _discriminator_optimizer
  order: -1
  type: <class 'torch.optim.adam.Adam'>
  value: null
epochs:
  computed: null
  is_explicitly_specified: false
  is_hyperparam: null
  is_meta: null
  name: epochs
  options: []
  order: -1
  type: <class 'int'>
  value: null
generator:
  computed: "Generator(\n  (layers): Sequential(\n    (0): ConvTranspose2d(100, 1024,\
    \ kernel_size=(3, 3), stride=(1, 1), bias=False)\n    (1): BatchNorm2d(1024, eps=1e-05,\
    \ momentum=0.1, affine=True, track_running_stats=True)\n    (2): ReLU(inplace=True)\n\
    \    (3): ConvTranspose2d(1024, 512, kernel_size=(3, 3), stride=(2, 2), bias=False)\n\
    \    (4): BatchNorm2d(512, eps=1e-05, momentum=0.1, affine=True, track_running_stats=True)\n\
    \    (5): ReLU(inplace=True)\n    (6): ConvTranspose2d(512, 256, kernel_size=(4,\
    \ 4), stride=(2, 2), padding=(1, 1), bias=False)\n    (7): BatchNorm2d(256, eps=1e-05,\
    \ momentum=0.1, affine=True, track_running_stats=True)\n    (8): ReLU(inplace=True)\n\
    \    (9): ConvTranspose2d(256, 1, kernel_size=(4, 4), stride=(2, 2), padding=(1,\
    \ 1), bias=False)\n    (10): Tanh()\n  )\n)"
  is_explicitly_specified: true
  is_hyperparam: null
  is_meta: null
  name: generator
  options:
  - mlp
  - cnn
  order: 1
  type: <class 'labml_helpers.module.Module'>
  value: cnn
generator_loss:
  computed: null
  is_explicitly_specified: false
  is_hyperparam: null
  is_meta: null
  name: generator_loss
…
